…
2018-04-27 09:15:15.503217: I tensorflow/core/common_runtime/gpu/gpu_device.cc:1041] Created TensorFlow device (/job:localhost/replica:0/task:0/device:GPU:1 with 10407 MB memory) -> physical GPU (device: 1, name: GeForce GTX 1080 Ti, pci bus id: 0000:02:00.0, compute capability: 6.1)
32 3
num_classes = 10
Training set size:	 50000
Testing set size:	 10000
-------------------Create model---------------------------
_________________________________________________________________
Layer (type)                 Output Shape              Param #   
=================================================================
conv2d_1 (Conv2D)            (None, 32, 32, 64)        1792      
_________________________________________________________________
conv2d_2 (Conv2D)            (None, 30, 30, 64)        36928     
_________________________________________________________________
max_pooling2d_1 (MaxPooling2 (None, 15, 15, 64)        0         
_________________________________________________________________
dropout_1 (Dropout)          (None, 15, 15, 64)        0         
_________________________________________________________________
conv2d_3 (Conv2D)            (None, 15, 15, 128)       73856     
_________________________________________________________________
conv2d_4 (Conv2D)            (None, 13, 13, 128)       147584    
_________________________________________________________________
max_pooling2d_2 (MaxPooling2 (None, 6, 6, 128)         0         
_________________________________________________________________
dropout_2 (Dropout)          (None, 6, 6, 128)         0         
_________________________________________________________________
conv2d_5 (Conv2D)            (None, 6, 6, 256)         295168    
_________________________________________________________________
conv2d_6 (Conv2D)            (None, 4, 4, 256)         590080    
_________________________________________________________________
max_pooling2d_3 (MaxPooling2 (None, 2, 2, 256)         0         
_________________________________________________________________
dropout_3 (Dropout)          (None, 2, 2, 256)         0         
_________________________________________________________________
flatten_1 (Flatten)          (None, 1024)              0         
_________________________________________________________________
dense_1 (Dense)              (None, 512)               524800    
_________________________________________________________________
dense_2 (Dense)              (None, 10)                5130      
=================================================================
Total params: 1,675,338
Trainable params: 1,675,338
Non-trainable params: 0
_________________________________________________________________
Epoch 00036: early stopping
Before Pruning, accuracy: 84.16%

airplaneautomobile bird  cat deer  dog froghorse shiptruck     
  858   18   29   17    5    1    9    7   32   24 (0)airplane
…
